logs/model_final.pth (torch, 859271 bytes, 9 tensors)

net.net.0.0.weight f4 [256, 63]
00000000: c7a0 353e 2195 223e 1f0b d93c 61d5 fd3d
00000010: 424d 723e cb22 d6be 5ca4 abbe efc6 dabd
00000020: bab6 cfbe bb69 de3e 80d9 a0bc 4dc8 12be
00000030: e888 4f3e 6614 073f f78c 8abe 2902 8bbe
00000040: 909c c9bc 6502 9b3e 666e 6bbf 330f 01be
00000050: 5ca0 20be b5c9 02be a232 a83b 59b2 45bd
00000060: d0ae 9f3b 1292 25bc 2f49 433c 9edc 253c
00000070: 4d57 babc 3253 85bd 3765 ec3c 7768 e4bc
00000080: 9b82 0ebb e9cb 33ba c346 0ab9 8034 8a3c
00000090: b9d2 12bb c808 baba 06e7 0bba 59dc 343a
000000a0: 69ee 3ab9 8b24 fe3a 22b9 5e3b d8ce 5bba
000000b0: 7218 9eba 9c78 033a 0ab7 4db9 9f89 723a
000000c0: 2a1d 4cba 807d 4f3a 5fb8 1cb9 2c65 2639
000000d0: 45ac f1b8 84f8 beb6 5d5f a0b9 afdf 48b9
000000e0: 5c0a 0938 1fa4 c037 f31c 6938 ceb0 62b6
000000f0: 3b9c 98b7 1e61 9a38 c8f1 6b38 d42e 853e
00000100: 5744 5abe 42b3 7f3f 7981 d53d 7bbf b8be
00000110: 65e0 8fbe b8f1 a33f 4676 a83e 218b 83bd
00000120: 5d49 a43e a3f9 f9be 9562 37be 956d 713d
00000130: 6cee 203f a1ef 07bf cde3 85bc 152c c2bb
00000140: b2ed 803e b2b4 a33d e4aa fcbd 0368 85ba
00000150: c6f7 e9bc b08f 943c 7d80 e33c 499e 90bd
00000160: a825 b03c ad08 05bd a04c cf3b 9f4b 3bbb
00000170: c85d cf3b 162c 02bc 1a58 9bbb b74e 213a
00000180: dd61 edb8 043d 88b8 c420 97ba 5347 a5ba
00000190: 8109 ac38 5797 b4b9 cfe7 80b8 e4d1 50b9
000001a0: 662e 5638 c9dc fc39 156d 0339 fc02 c2b9
000001b0: 0a18 2a39 885c 87b8 664c 8039 1efc 02b9
000001c0: c01d 06b9 ffa3 6738 2182 5b38 837f 84b8
000001d0: ca15 0b38 0124 3ab7 3b40 9138 877e 3138
000001e0: 1ebd 05b8 92c3 3837 2a91 a835 d366 e3b7
000001f0: f120 be36 31a2 0fb7 66f2 16be 2f25 bdbd
00000200: d54e bebe cf23 88be 88be 8a3e 464a 81be
00000210: e19f 353e 74cd babe fbc5 fdbd 9940 94be
00000220: fe97 173e 8fc8 edbd f083 edbc 10eb 5e3e
00000230: a97f 12bd ecbf adbc d50e 573b 45fe d7bc
00000240: 9f88 0dbe 4408 1cbd b24e e1bc 3931 8d3d
00000250: c1e0 363c 3739 4cb9 f48f 823d ea86 c43b
00000260: 12be 523c d559 3ebb 7b2e 84bc 8d59 d03c
00000270: 12a9 a13b 954c 61ba 2dc0 a13b 883e c0ba
00000280: a998 1e3b cbd0 093b 6e76 943b 07c2 3db7
00000290: b726 31bb d3e8 9038 931f 2339 e268 3fba
000002a0: 94af f7b8 b7b2 34b8 a476 4eba 94de 99b8
000002b0: 60cc 9339 c1a5 1f39 2f14 2c38 e4e5 a238
000002c0: 04c2 8ab7 bd44 3fb8 648f 0137 906c 3339
000002d0: 9901 0d38 989c 9fb7 e950 a0b8 c915 13b8
000002e0: 9225 edb5 b821 33b7 ff17 ed38 ec23 3738
000002f0: 9c18 c2b7 5fee 8cbd caf1 e4bb baee 75be
00000300: 7a3b b6be 1db9 ac3c 7667 ddbe c99d 973e
00000310: 842c 983d 429a ce3d 3918 28bd 6c42 873e
00000320: 3d41 243c aa27 6a3e 9150 413a 0b11 23be
00000330: 8617 e2bd a0f3 a8bd 6fe1 19be 60ed c33d
00000340: 1253 10bd f363 79bd c5c2 81bc 2ba7 68bd
00000350: 1637 2d3e 6410 753d 95e5 043d e411 dcb9
00000360: 495a 623b 2811 8cbc bdb3 a9bb 0344 c43c
00000370: fbf4 943b 0064 1bbc 73db 7b3b dfe2 3fbb
00000380: 66ee f2b9 826e aa3b 8498 adba 1f29 dd39
00000390: 2390 4638 1a2c 403a 1268 85b9 aea0 213b
000003a0: 323d d339 bbc0 19ba 4eb1 2739 fa45 3cb9
000003b0: 1682 8438 4915 e3b9 7104 c3b8 3d3c 2ab9
000003c0: cae8 ee38 8506 8a39 68db 6239 aa3f 2b39
000003d0: 9a4b c4b8 8ff2 9bb7 8d6e 48b8 792e 2b38
000003e0: df24 7bb8 c6d3 6237 1423 7cb8 a0b3 1d36
000003f0: 1deb 46be 1fa0 833f 68b9 c83f bc81 cf3e
0.17737113 0.158772 0.02649456 0.123942144 0.23662284 -0.4182342 -0.33523834 -0.10682475
-0.40569097 0.4344004 -0.019634962 -0.14334221 0.2026707 0.527655 -0.27060673 -0.27150086
-0.024610788 0.30275264 -0.9196533 -0.12603454 -0.15686172 -0.12772258 0.005132989 -0.04826579
0.004873134 -0.010105627 0.011919304 0.0101234 -0.022746706 -0.06510009 0.028856857 -0.027881844
-0.0021745327 -0.0006858693 -0.00013187066 0.016870737 -0.0022403433 -0.0014193291 -0.00053368544 0.00068992894
-0.00017827157 0.0019389553 0.003398486 -0.0008385009 -0.0012061729 0.00050152256 -0.00019618511 0.00092520745
-0.0007786328 0.00079151243 -0.00014946003 0.00015868683 -0.00011523863 -5.6913723e-06 -0.0003058863 -0.00019156815
3.2672993e-05 2.2964608e-05 5.557849e-05 -3.3779538e-06 -1.8192562e-05 7.361382e-05 5.6253542e-05 0.2601229
-0.21315132 0.998829 0.104250856 -0.36083588 -0.28100887 1.2808142 0.32902735 -0.06423021
0.32087222 -0.4882327 -0.179087 0.058942396 0.628638 -0.5310002 -0.016343975 -0.005925665
0.25181347 0.07993449 -0.12337282 -0.0010178093 -0.02856053 0.018134922 0.027771229 -0.070614405
0.02150233 -0.032478977 0.006326273 -0.002857901 0.0063283183 -0.007945081 -0.004740727 0.0006153392
-0.00011319269 -6.4963504e-05 -0.0011530151 -0.0012609757 8.203369e-05 -0.00034445032 -6.146693e-05 -0.00019914616
5.1064788e-05 0.00048229683 0.0001253377 -0.00037004787 0.00016221419 -6.454537e-05 0.00024470984 -0.00012491687
-0.00012790319 5.5227425e-05 5.233486e-05 -6.3180014e-05 3.3160475e-05 -1.1094847e-05 6.926103e-05 4.2317926e-05
-3.18858e-05 1.1012789e-05 1.2559224e-06 -2.710839e-05 5.666276e-06 -8.561227e-06 -0.14740905 -0.09235608
-0.3716952 -0.2658982 0.2709849 -0.2525198 0.1773677 -0.36484873 -0.123912774 -0.28955534
0.14804074 -0.11610519 -0.028993577 0.21769357 -0.035766277 -0.02120968 0.0032815237 -0.026366362
-0.13821648 -0.03809382 -0.027503345 0.06894154 0.011161984 -0.0001947627 0.06375113 0.0059975283
0.012862699 -0.0029045243 -0.016135445 0.025433326 0.004933485 -0.00085944805 0.004936239 -0.0014667073
0.002419988 0.0021028991 0.0045307195 -1.1310453e-05 -0.0027031132 6.909822e-05 0.00015556654 -0.00073017005
-0.00011810582 -4.3081785e-05 -0.0007875955 -7.337067e-05 0.00028190296 0.0001522517 4.1026793e-05 7.7675824e-05
-1.6541228e-05 -4.5601966e-05 7.722385e-06 0.00017111213 3.3618508e-05 -1.9027197e-05 -7.644465e-05 -3.506782e-05
-1.766881e-06 -1.0677082e-05 0.0001130551 4.3664055e-05 -2.3138062e-05 -0.06881403 -0.0069868313 -0.24016848
-0.35592252 0.021084363 -0.43242997 0.29612568 0.07430366 0.10088016 -0.041038726 0.26417863
0.01002532 0.22866693 0.0007374371 -0.1592447 -0.11039643 -0.08249593 -0.15027402 0.0956676
-0.035235472 -0.060886335 -0.015839944 -0.05680005 0.16915545 0.059830084 0.03244551 -0.00041975
0.0034538677 -0.017098024 -0.005178897 0.023958212 0.0045458055 -0.009484291 0.0038430362 -0.0029279513
-0.00046335458 0.005201162 -0.0013244306 0.00042183042 4.7341116e-05 0.00073307904 -0.00025445275 0.0024662423
0.0004029065 -0.0005865206 0.00015992412 -0.00017955145 6.318481e-05 -0.00043312673 -9.299152e-05 -0.00016234904
0.00011392085 0.0002632627 0.00021634775 0.00016331548 -9.36009e-05 -1.859039e-05 -4.7786674e-05 4.0812858e-05
-5.9877402e-05 1.3519957e-05 -6.011415e-05 2.3499379e-06 -0.19425626 1.028324 1.5681581 0.40528667

net.net.0.0.bias f4 [256]
00000000: 5a0c 553d b2ab 063f 9426 09be 6291 eebc
00000010: e530 583e 1659 19bc 684f ebbc 3bdf e23e
00000020: 78b4 263e 63cd 83be 040f d0bd 96c7 0ebd
00000030: 4bc4 053f 6bc7 1e3e be9b 023f bcb1 463e
00000040: f12c 4d3e c3bb 1b3e c473 9dbe 62ea 9b3e
00000050: 329b a43c c4e1 92bd 8070 00be 54eb 1d3e
00000060: fd49 413e 959e 05bf 4842 e5bd 6574 89bd
00000070: b249 e3be 1ca9 febe 374d 8c3e f3a0 48bf
00000080: 05b9 893e c845 f5bc 5c31 26bf bbce 273f
00000090: 5e22 97be e66e 44bf 8aee 5d3e a034 363d
000000a0: cce2 21bf df6f c03e b392 1e3f e29a 96be
000000b0: 4be8 0f3e c63d 9d3d 16a6 7f3e fd7a 283e
000000c0: 78e8 35bc ff64 103e a379 e7bd b68f 933e
000000d0: 406e 3ebe 05a5 93be 0982 51bd 86d0 033e
000000e0: ad52 e7be fdb0 833e abf4 f4be 68ee be3d
000000f0: 8ff5 92bd c7c4 daba eee5 f23d 15b5 46be
00000100: 1301 273e 7fbf 983e e7ac 6ebe 7f63 c83e
00000110: 4c11 a3bd fa45 9c3e eb17 68be 65a5 4a3e
00000120: fdb0 43be 3dc6 4f3e bfb1 bf3e 0f6f e83d
00000130: f0b5 f9bc abd8 07be 9d00 d13d a240 973c
00000140: 71fe c4be 9ee6 673e cdaf e6bf 868d 123b
00000150: e4cd 2ebd 6a44 9ebd e23b bb3d e2e1 f6bb
00000160: 6256 46be 45c6 bebd 2053 c93e 9da1 2a3f
00000170: e5e9 d0be 7c3e 9ebc 5142 bb3e 2454 903e
00000180: 6975 eebd 78ad 783d b5dc 1f3f 2023 9fbe
00000190: 6df1 b73d ca14 9a3c 4f09 d33d f6ac 033d
000001a0: b213 8ebe 2399 983e 118c 0cbe 54b4 213e
000001b0: 4659 f7bd ee37 eabd 73c1 d83c 2e04 49bd
000001c0: ddcf 003e 3f0f 843e 2d5b a3be 1842 92bf
000001d0: d305 5dbd cc46 7b3e 2c21 8d3e c1cc 3fbd
000001e0: 529d 513e 0a7e 2fbe e67f 433e decc 953d
000001f0: cc63 86be 3ae1 0b3f 5df8 56be 94d2 383e
00000200: c587 83be 1308 d8bd 4419 943e 88f5 f33d
00000210: c4ff c73e 1b8f bbbe 4b5c a53e 607d 183d
00000220: e1b5 7bbe 699a 253e 9792 533d ece3 07be
00000230: e351 383e ca48 893e 9ad4 52bf 0ad4 74be
00000240: e8e2 673e ee84 e53e 007e 4fbc e31b b9bd
00000250: 79b3 da3e f4bf c4bf de5f f5bd c39f 8fbe
00000260: 014d 373e d19f 513e d608 403e 3e51 74bd
00000270: ae19 443f fdab 22bd 8703 503e e36e 83be
00000280: 468c 2c3c 89e6 23bf f285 b73e f700 0d3f
00000290: 795e 0a3e a74b e43e f92f 1a3e e1ae e83c
000002a0: c722 aa3e f9d3 9e3e 8ebe 08be af3a 3cbd
000002b0: dc22 7a3e 0396 7bbd 00fd 593e 71b3 4cbf
000002c0: c7c8 f33d fdf7 9c3c 1b80 8b3e 64ac df3e
000002d0: c786 ac3e 4682 7b3e 471e c43d 4eb6 af3e
000002e0: 89c3 00be 2601 d13e a3b2 143e b312 693e
000002f0: dab0 8a3d c8c5 a83e dfa1 973e d5e0 f7be
00000300: 3b05 b8be ad57 33bf 658a 02be e10e f33e
00000310: baa9 07bf 6286 8a3c b7c6 b53e 5192 5ebd
00000320: eadf b93d 7e39 15bf 0e48 e5bf 6f1e afbe
00000330: 76e6 823e c4c8 aabe 5b17 113e 33e6 713e
00000340: 39bc 2bbe 5d16 7f3c 756e ba3e 2a0b 93bc
00000350: 34b3 563d 9988 18bf 0df1 65b9 5022 41be
00000360: 1fef 173f 5c44 dc3d 2396 5cbf e6aa 83bf
00000370: 4f1a e5bd 38a2 fbbd a123 b3bd 445c b43e
00000380: cfe2 753d a3a6 9f3e 620f 263e 691a 68bd
00000390: a9bf 04bf d921 cbbe e23f 2b3e 33f5 52bf
000003a0: a8d9 15bf 80b8 ac3e a05c 103e 1b11 9d3e
000003b0: 4a9f fdbd 2a4f 1b3e ebef f13d d38e 4e3d
000003c0: 2c6e 8e3d f786 0d3e 3864 6c3e 5c5f 863c
000003d0: 4bc5 eb3d a579 60bf e013 16be 48f3 bfbe
000003e0: 9d65 22bf d069 913e bdd1 163e 3678 7b3e
000003f0: 0cbe eebd 91f3 843e cb3f 373e 13f5 c63e
0.052013732 0.52605736 -0.13393623 -0.029122058 0.21112402 -0.009359619 -0.028724387 0.44310936
0.16279781 -0.25742635 -0.10159114 -0.03485831 0.52252644 0.1550576 0.51018894 0.19403738
0.20036675 0.15208344 -0.30752385 0.30452257 0.020093534 -0.071719676 -0.12542915 0.15421802
0.1887588 -0.521951 -0.11194283 -0.067116536 -0.44392163 -0.49738395 0.2740266 -0.7837059
0.2689897 -0.0299405 -0.64919066 0.6554982 -0.29518408 -0.7673172 0.21673027 0.04448378
-0.6323669 0.3758535 0.61942595 -0.2941504 0.14053456 0.07677798 0.249657 0.16453166
-0.011102788 0.14101027 -0.11302497 0.2882058 -0.18596745 -0.28836837 -0.0511494 0.12872514
-0.45180264 0.2572097 -0.47842917 0.09322816 -0.07175743 -0.0016690724 0.11860262 -0.19405015
0.16309004 0.298336 -0.23308145 0.3913841 -0.079622835 0.30522138 -0.22665374 0.19789656
-0.19110484 0.20290466 0.37440297 0.11349308 -0.030482262 -0.13266246 0.10205195 0.018463437
-0.38475373 0.22646567 -1.80224 0.0022362187 -0.04267682 -0.07727893 0.09142281 -0.0075342515
-0.1936889 -0.09315161 0.39321232 0.6665285 -0.40803447 -0.019316904 0.36574033 0.28189194
-0.11643488 0.060712308 0.6244615 -0.31081486 0.08981595 0.018808741 0.1030451 0.03214737
-0.277494 0.29804334 -0.13725306 0.15791446 -0.120775744 -0.11436449 0.026459431 -0.04907625
0.12579294 0.25792882 -0.319055 -1.142642 -0.053960633 0.24538726 0.2756437 -0.046826128
0.20470169 -0.17137924 0.19091758 0.07314466 -0.26248014 0.54640543 -0.2099318 0.18049079
-0.2568952 -0.10548415 0.28925526 0.11912066 0.3906232 -0.36632618 0.32296976 0.037228942
-0.245811 0.16172184 0.05165347 -0.13270539 0.17999987 0.26813346 -0.82355654 -0.23909011
0.22645152 0.4482798 -0.012664318 -0.09038522 0.42715052 -1.537108 -0.11981176 -0.28051576
0.17900468 0.20471121 0.1875337 -0.05964779 0.76601684 -0.039714802 0.20313846 -0.25670537
0.010531491 -0.64023644 0.3584438 0.550796 0.13512601 0.44588968 0.15057363 0.028403701
0.33229658 0.31021097 -0.13353941 -0.045954403 0.2442736 -0.06142236 0.21287918 -0.79961306
0.119035296 0.019161219 0.27246174 0.4368621 0.33696577 0.24561414 0.095760874 0.34318775
-0.1257459 0.4082119 0.1452127 0.2276104 0.06772013 0.32963395 0.29615685 -0.4841372
-0.3594149 -0.7005566 -0.12748106 0.4747229 -0.5299336 0.016909782 0.3550317 -0.054338757
0.09075911 -0.5829085 -1.7912614 -0.34202906 0.25566453 -0.33356297 0.14169066 0.2362297
-0.1677102 0.015569297 0.36412397 -0.01794966 0.052416995 -0.5958343 -0.0002192894 -0.18860745
0.59349245 0.10755226 -0.8616659 -1.0286529 -0.111866586 -0.122868 -0.0874703 0.35226643
0.060030755 0.3118182 0.16216806 -0.05666581 -0.5185495 -0.3967426 0.16723588 -0.82405394
-0.5853524 0.33734512 0.14097834 0.30677113 -0.123838976 0.15166917 0.11813339 0.050429177
0.06954607 0.13821016 0.23085105 0.016402893 0.1151224 -0.87685615 -0.14656019 -0.37490296
-0.634363 0.2840104 0.14728446 0.24557576 -0.11657342 0.25967076 0.17895429 0.38858852

net.net.1.0.weight f4 [256, 256]
00000000: 8269 913c ef29 583d 7c41 b03d ffb5 38bd
00000010: 1352 873c c4e7 56bb 9c06 763c ef56 afbb
00000020: 9019 333d 8491 a53c 328b 66bd 5273 d93c
00000030: f79c 8cbd 15d1 13bc e9c0 053d a2e2 02bd
00000040: 5dce 48bc 7642 9cbd 92ad e2bc 5186 68bd
00000050: 1cb7 d8bc 513d 35bb de82 043c 339d b53c
00000060: 8c01 b63d 0161 f6bd 425e 2fbc f428 f63c
00000070: c1b4 9dbd 0282 f53b 4dbf bf3b a847 ccbc
00000080: 9cc5 543b 9dcf 9cbd 9210 0f3d 0af0 c43b
00000090: d867 553b 5fc4 bc3d 4697 2bbd 12eb de3b
000000a0: 0a21 b43c 0e45 0a3c a366 76bd 2ccc 633c
000000b0: 97f2 b53d e645 b2bd edb0 e6bc 4c1c 8fbd
000000c0: d7b7 9c3d 793e 41bb 9363 d03c 98cd 04bd
000000d0: 3ca7 fcbc 96b4 063d 2830 163d bb47 f73c
000000e0: 8c71 fa3b 756f 72bc 35be a63d 2dfa 053e
000000f0: 05d9 823b 0b39 0a3c 788f 52bd 3ff4 36bc
00000100: 6155 1f3c 020f 813c bbe4 da3c d7b5 22bb
00000110: e091 00bc 2adf 133d 703c e43c 78a7 8b3c
00000120: 51dd ccbb a8f6 99bb 6f4f fe3c b944 b9bb
00000130: 4c4a bbbd a172 923c e061 b93d 3743 ae3c
00000140: 7738 9ebd e1b0 3fbd e2fd 893c 0a4f 3dbc
00000150: 7d93 153d f39c b6bc f987 06bc b15a 503d
00000160: c946 84bd 6c6a 073d b6bc d63c 07a1 12bd
00000170: 6d2a 2bbc a71b d9bd e31a 913d b583 263d
00000180: 9ea6 69bc 5ae9 573c be0a 583d 33f3 6a3d
00000190: 89bd da3c 0b19 923c 2f6c 4bbc 33f6 5bbc
000001a0: 35ef 0dbd 673f 083d d682 cf3c 26d3 a83d
000001b0: 3359 2c3d 22c0 523d ba83 8b3d 30ea dcbc
000001c0: b968 50bc 80d9 0c3c 7cba 5ebc 0165 2a3d
000001d0: fc4f d9bd 5248 50bb 19b8 86bd 1aee 7ebb
000001e0: 7783 213d e736 08bd 928f a5bc 3364 0dbb
000001f0: 926a 61bd cf5c d53c f745 e4bc 0ce8 64bb
00000200: 4751 643d 1698 0abd 071b ea3c 73bd b33c
00000210: 1ad4 c73c b3d3 0c3d 22cc d93c 5acd 503c
00000220: ef20 4ebd 315e 8dbc 1233 a33d 2f96 7ebd
00000230: 304e c43b 80bc c93c 0ab2 ee3c 194e 553c
00000240: e809 073c 344e ad3d 9efd 383d ca63 c9bc
00000250: afe3 853d f031 433d 07cd 893d 3005 3a3d
00000260: ccb3 82bc 865b aebc 4cfc cf3c c088 e0bc
00000270: ac1b cd3c 7fc4 02bd 70fb 8b3d 4c09 79bd
00000280: 0bfc ad3d 8725 b43c 7cd4 3fbc c845 023e
00000290: a805 9cbd 38d6 53bd 8f14 023d 217a af3c
000002a0: 7e0c 103d 29b3 cebd 6ab9 93bd 4bb0 e9bc
000002b0: b1e1 9e3d 747c 22bb 4c33 833d e9b6 c9bd
000002c0: 15fb e33c 15f2 8f3d 4920 13bc 47b9 a5bd
000002d0: 299a ce3c 0a12 0f3d 37f4 e33d 25f9 b4bc
000002e0: 8108 f03c 8e69 983c f7d4 303d cf83 5fbb
000002f0: 3f5e afbd 31a9 febc 9834 76bd 44a9 983c
00000300: ebb7 1b3c 7804 d13c 0368 26bb e3b7 eabc
00000310: 360c 19bd caab edbb 4680 c73c 8ac9 9cbb
00000320: 065d 14bc 4a82 46bd d764 6d3a d7d4 e03c
00000330: fa52 343d 9f6e 37bd 6be7 013c 5c9e b2bc
00000340: 1a61 183c d7b7 a53b 59e0 cbbb 6036 84bd
00000350: 50d8 623d fc08 63bb 8456 0d3d 25e8 9a3c
00000360: a543 b1bb 0bdd 993c d25b 87bd b1ed 0bbe
00000370: 6aac 483c 9ecc 02bc e933 54bd 0545 143d
00000380: f1b0 b8bb 99e8 0ebe 80c7 3cbd 51ce 993d
00000390: 09c4 45bb 96e8 38bc 68fb 8abc dcf1 043d
000003a0: 45e9 4fbd b717 54bd e5bd 44bc 7c2f 91bc
000003b0: e51c f1bc 07e4 98bc 55d9 1739 485b 9abc
000003c0: 3e67 b8bc 9d51 6c3d b939 43bd d54b c43b
000003d0: 715d 0ebd 1e0c 2a3e dfff ed3d 246e 24bd
000003e0: 75ed d63b ed4d 84bd c39d 1b3c 257b 9e3d
000003f0: 7d0c 1abd 8e31 733d 880b d53c d03b 833d
0.017750505 0.052774366 0.0860624 -0.04509544 0.016518628 -0.0032791952 0.015016224 -0.0053509395
0.04372555 0.020210989 -0.05628509 0.026544247 -0.06865876 -0.009022017 0.032654677 -0.031954415
-0.012256232 -0.07629864 -0.027670655 -0.05676872 -0.0264545 -0.0027654956 0.008087842 0.022169685
0.08887014 -0.12030221 -0.010703625 0.030048825 -0.07700492 0.007492305 0.0058516623 -0.024936512
0.0032466417 -0.076567866 0.034927912 0.00601006 0.0032563116 0.09217142 -0.041892312 0.006802925
0.02198841 0.0084393155 -0.060156476 0.013903659 0.08884161 -0.08704738 -0.028160537 -0.06987819
0.07652252 -0.00294867 0.025438106 -0.032422632 -0.030841462 0.032887064 0.03666702 0.030185571
0.0076429304 -0.014797081 0.08141748 0.13083716 0.003993156 0.008436452 -0.051406354 -0.011166631
0.009724946 0.015754227 0.026720395 -0.0024827623 -0.007847279 0.036101498 0.02786085 0.017047629
-0.006251969 -0.004698593 0.031043736 -0.0056539443 -0.091450304 0.017876925 0.09051871 0.021272285
-0.077256136 -0.046799544 0.016844694 -0.011554489 0.03651761 -0.022291636 -0.008211129 0.05086774
-0.06458814 0.033060476 0.026213031 -0.0357981 -0.010447127 -0.106009774 0.07085206 0.04065295
-0.014260916 0.013178194 0.05274462 0.05736084 0.026701706 0.017834207 -0.01241593 -0.013425398
-0.034651954 0.03326359 0.025330942 0.08243398 0.042077255 0.051452763 0.06812234 -0.026967138
-0.01272028 0.008596778 -0.013594266 0.04160023 -0.10610959 -0.0031781388 -0.065780826 -0.0038899244
0.039432015 -0.033255484 -0.020210061 -0.0021574616 -0.055033274 0.026045231 -0.027865393 -0.003492835
0.055741575 -0.033836447 0.02857734 0.021940922 0.02439313 0.03438158 0.026586596 0.012744272
-0.050324377 -0.017256828 0.07968725 -0.062154945 0.005990766 0.024626017 0.02913763 0.013019108
0.008242108 0.08462182 0.045163743 -0.024583716 0.06537568 0.047655046 0.06728559 0.045415103
-0.015954874 -0.021283876 0.02538886 -0.027408957 0.025037609 -0.031925675 0.06835067 -0.06079988
0.08495339 0.02199055 -0.011708375 0.12721932 -0.07618266 -0.051717967 0.031757887 0.02142054
0.035168163 -0.10092766 -0.07213099 -0.028526446 0.07757891 -0.0024793418 0.064062685 -0.098493405
0.027829686 0.07028595 -0.008979865 -0.080919795 0.025219994 0.034929313 0.11130565 -0.022091458
0.02930093 0.01860502 0.04317185 -0.0034105664 -0.08562898 -0.031086536 -0.06010875 0.0186354
0.009504299 0.025514826 -0.0025391586 -0.028652137 -0.03736516 -0.007253145 0.024353158 -0.0047847675
-0.009055382 -0.048464097 0.0009055859 0.02744524 0.044024445 -0.04478323 0.0079287095 -0.021804027
0.009300495 0.005057316 -0.0062218127 -0.06455684 0.055382073 -0.0034642806 0.034506336 0.018909523
-0.005409675 0.01878216 -0.0660931 -0.13664891 0.012248138 -0.007983355 -0.051807318 0.036198635
-0.0056363274 -0.13955916 -0.046088696 0.07510055 -0.003017666 -0.011285922 -0.016965583 0.032457218
-0.050759573 -0.05178043 -0.012008165 -0.017722838 -0.029432723 -0.01866342 0.00014481445 -0.018842354
-0.022510167 0.05769502 -0.04766247 0.005990485 -0.03475708 0.16606185 0.11621069 -0.0401441
0.006559069 -0.06460176 0.009498063 0.07738332 -0.037609566 0.05937343 0.026006475 0.06407893

net.net.1.0.bias f4 [256]
00000000: 8bf2 da3b c196 3b3c 8d8b 85bd 57fb ff3c
00000010: 0831 ccbf 5743 283e 5270 493d ce9a f0bc
00000020: 73ae 96bd 7c1f 88bd a0bb 09bd 59e2 bebd
00000030: 1850 d5bd 5edd 9f3d 82a1 cdbd e13a 38bd
00000040: 2109 87bb 8da7 a0bc 440e 0b3d b000 063c
00000050: bc01 2bbd abc7 163d 6ff4 a7bc 8ef0 d53c
00000060: db8f 573d c98e 82bc 796c d6bc fdcb c7bd
00000070: c86f 293d d3bb 6c3b c4b9 c3bd a6c4 cbbd
00000080: 63eb 97bd 6992 eabd 2ff7 cdbd 389e a0bd
00000090: b880 e4bc ce55 b9bd 65a7 e83d 2fe6 a23b
000000a0: ecdb 9c3d dfe4 d6bd 8946 1bbe 2e88 e23c
000000b0: bb7f 5bbd b3ce 09bd 7d93 673d a252 0b3e
000000c0: cd9e 0ebd aa91 fc3d 32c6 cfbb 8474 383d
000000d0: a39c d0bd 6805 a7bd 448c f6bd 1f44 e5bc
000000e0: 2592 443c b729 30bc 37ea 193e fd0f d5bd
000000f0: a9fc c33c baf8 00bd b41d 6a3d 4915 a43c
00000100: f469 1d3b 6c01 933b 20da 0e3d ca0d 33bb
00000110: e82d 15be 4089 023e b648 a53d 1d6c 37bd
00000120: a1f6 80bd cf10 e43a 6d0a 0ebe a0e6 75bd
00000130: 65b9 94bd b351 49be 70fd a93c bdcd 5c3d
00000140: b234 d3bd b786 2cbd 6752 4ebd 7bb5 83bd
00000150: f0d0 103d 9cd1 d23d 5df7 8e3b 042e 373b
00000160: 724e ddbd 3fb6 a13c 5682 8a3c eeeb 13be
00000170: a885 3dbd c039 92bd ab66 01bb 518b 0c3d
00000180: 8fdf d93d 10d4 a6bd 1711 d83c 32f5 05bc
00000190: a9e8 20bd 1b17 f53b 95d3 49bc 525f 1abd
000001a0: 22aa ddbd 056e 9dbb 2b4f 193d 3735 6abd
000001b0: af04 3f3d bebc 9a3d ba85 723d b2c4 20bb
000001c0: c085 14bd 36cc 713d 0d57 16be 8ecc 1a3d
000001d0: 031e 0cbe 37da 0c3d d48d 76bc 2ae9 76bc
000001e0: 52ae 4d3c dd8e 06bd 7de5 153c 0c70 74bd
000001f0: 865c a2bc 9d7b a7bd 248f ff3c bd7f 03bd
00000200: 2608 c0bb abfb cebc 8689 06be 9b9e 0e3e
00000210: b247 dfbd d865 a4bc 41d3 2fbd c9df f6bd
00000220: 09c1 193d ba2a 0dbc 93ba 723d f69f 933d
00000230: 20b8 efbd 3b07 ac3c 81b9 833d 21a5 09bd
00000240: cc7c 0a3d d382 8fbd cfb5 e83d 1e7d 4c3d
00000250: 0885 3ebd b825 05bd 88e7 2dbc 0e9c a0bd
00000260: af4d bd3c 401f f73b b2bf d03d a2b4 fbbc
00000270: 4cd3 143d a3a4 39bc bf34 843c 64d3 5cbd
00000280: 964f 30bd 1b1f 79bd 2e3b ae3d 14db 28bd
00000290: 231b 7e3d d55a 5abc 3e73 0cbe a708 333d
000002a0: 7cc2 b1bc 2cbd c5bd cf75 7cbb 79c1 2ebd
000002b0: 881b 2bbd 6e1c b6bc d290 ba3d 20c7 93bd
000002c0: 9dbb d3bc 2f6b 87bd 7750 933b 0378 41bd
000002d0: 5d81 6f3d 7697 22be 7ac1 263c 7fff 913b
000002e0: 4a73 05bc 309a 0eba dff5 13bd 7e91 61bc
000002f0: 4b7b 10bc b546 b0bc 2f4a 9ebd c44f 96bd
00000300: da3d b2bd 228c 9dbd 17b3 5a3d 09a6 2f3c
00000310: c85a a5bc a581 14bd a1fe ccbd 9c4d b83d
00000320: ac0b 8e3d 0815 b53d fad0 1dbe dcf3 a23d
00000330: 7e02 f8bd 4312 38bd 979d 17be 2f7c c23c
00000340: 9727 a03b 7777 82bc ce8c 02bd 326d 15bd
00000350: 0c50 52bd 1001 06be fa65 76bd bf81 b6bd
00000360: 6e59 48bd 2248 073d d29f 01bc f0c9 613d
00000370: dfe4 94bd af50 0bbe f6db c8bd 8272 253b
00000380: b666 fb3d 55a1 9a3d 8fc9 233e 10f4 28bd
00000390: 9867 3fbd 2be8 1fbd 048f e4bd 2e5f 903d
000003a0: 4347 c13b 3555 d4bc c929 7abd e549 9fbc
000003b0: 143a 16bd eab9 1c3d 3153 afbd fe1a de3c
000003c0: 36b1 2e3d 7483 01bd d8b4 453d 50b6 98bd
000003d0: 82bb e23b 0a63 abbd 7029 86bc d201 4d3d
000003e0: 996e b7bc 189c a6bd 0754 40bb 15de 1e3c
000003f0: 4cf4 23be b1d1 8e3c e1e1 ab3d aa78 9dbd
0.0066817454 0.011449517 -0.06520758 0.031247778 -1.5952463 0.16431938 0.049179383 -0.029370692
-0.07357492 -0.0664663 -0.0336262 -0.09320516 -0.10415667 0.07805894 -0.10040571 -0.044978026
-0.0041209613 -0.019611144 0.03394915 0.008178875 -0.0417497 0.036811512 -0.020502297 0.026115682
0.052627426 -0.015937226 -0.02617477 -0.097557046 0.04136637 0.0036122694 -0.09556916 -0.09949617
-0.07417943 -0.11453707 -0.10056912 -0.07842678 -0.02789341 -0.09049569 0.11360053 0.0049712877
0.07659134 -0.104928724 -0.15163626 0.027652826 -0.05358861 -0.03364439 0.05653714 0.1360574
-0.034819413 0.12332471 -0.0063407654 0.045032993 -0.10186126 -0.08155328 -0.12038472 -0.027986584
0.011997734 -0.010752133 0.15030752 -0.1040344 0.023924189 -0.031487204 0.057157233 0.02002968
0.0024019452 0.0044862535 0.03487599 -0.0027321451 -0.14568293 0.12747669 0.08070509 -0.04478084
-0.06297041 0.0017400029 -0.13871165 -0.060034394 -0.07261924 -0.19660072 0.020750731 0.053907145
-0.10312785 -0.04212066 -0.050371554 -0.06431099 0.03535551 0.10293886 0.004362984 0.0027951011
-0.10805978 0.019740222 0.016907852 -0.14445469 -0.046270043 -0.07139921 -0.0019745033 0.03431255
0.106383435 -0.081459165 0.026375337 -0.008176135 -0.039284382 0.007479561 -0.0123185115 -0.03768856
-0.10823466 -0.004804375 0.037429016 -0.057179656 0.046635326 0.07555531 0.059209563 -0.0024531302
-0.036260366 0.05903264 -0.14681645 0.037792735 -0.13683324 0.034387793 -0.015048463 -0.015070239
0.012553768 -0.03285109 0.009148953 -0.05967717 -0.01981951 -0.08177874 0.031196184 -0.032104243
-0.0058603464 -0.025266489 -0.13138399 0.1392769 -0.10902347 -0.020068094 -0.042926077 -0.120544024
0.03753761 -0.008616144 0.059259962 0.072082445 -0.11705041 0.020999542 0.064318664 -0.033604745
0.03381042 -0.070073746 0.11362802 0.04992401 -0.046513587 -0.032506675 -0.010614283 -0.07842265
0.023108331 0.007541567 0.10192813 -0.03072578 0.03633432 -0.011330756 0.016138433 -0.053912535
-0.04304465 -0.06082068 0.085073814 -0.041224554 0.0620376 -0.01332732 -0.13715836 0.043709423
-0.021699183 -0.09655222 -0.0038522368 -0.04266498 -0.041774303 -0.022230353 0.091096535 -0.072157145
-0.025846297 -0.066122405 0.004495676 -0.047233593 0.05847298 -0.1587809 0.010177964 0.0044555063
-0.008145163 -0.0005439846 -0.036123153 -0.013767598 -0.008818458 -0.02151809 -0.07728993 -0.07339433
-0.087032035 -0.07692744 0.05339345 0.010720738 -0.02018489 -0.03625645 -0.10009504 0.08999178
0.0693582 0.08841902 -0.1541175 0.07956669 -0.1210985 -0.04493929 -0.1480621 0.023740856
0.004887532 -0.015926106 -0.031872563 -0.03648109 -0.05134587 -0.13086343 -0.060155846 -0.08911466
-0.04891341 0.033027776 -0.007911639 0.055124223 -0.07270216 -0.13604997 -0.09807579 0.0025245254
0.1227545 0.07550303 0.15994857 -0.04124838 -0.046729654 -0.039039772 -0.111600906 0.07049404
0.0058983876 -0.025919536 -0.061075006 -0.019444415 -0.03667648 0.03826324 -0.085607894 0.02711248
0.04264947 -0.031619504 0.04826817 -0.07456648 0.0069193253 -0.083684996 -0.01637718 0.050050564
-0.022391604 -0.08135241 -0.002934696 0.009696503 -0.1601116 0.017433973 0.08392692 -0.076890305

net.net.2.0.weight f4 [256, 256]
00000000: eaf7 45bd f311 b1bd efa0 3e3d 1c3e 5fbd
00000010: 9d55 41bc d429 29bc f404 a73c a0fa 573c
00000020: 7e44 983c e762 b93b 594c 2dba 03e4 44bb
00000030: 3e90 6d3c 577f e5bc 94ce debc 1f9f d53c
00000040: b696 923b 1910 7bbb 9133 d0bb 429a 3f3c
00000050: 9397 3e3c 2959 df3c eb99 883c ed70 b1bb
00000060: 317f 5d3a 26e9 d93c 36db 16bc 996b 3d3d
00000070: 2fd3 2dbd ab6c 7fbc 61f8 a53c 430a b9bd
00000080: 9e2d 84bd 3423 1c3c 5808 0f3d bf39 063d
00000090: 03ff d43c 5e39 a3bc 887f 423c 2496 aa3c
000000a0: 96be d8bc 6d6f 29bd a2ad 4abc c204 bebc
000000b0: b15c b1bd 636f 723d 2aff 9e3d 5159 8d3c
000000c0: 7907 d63c 4685 10bd bda2 063d 8d0d 94bc
000000d0: ea98 00bd fdfe 8c3c 6728 323c e9ba 303c
000000e0: 5de6 4c3c 6710 1f3b 926b a83b 7a8f 3abb
000000f0: ade8 24bd 5f5a d8bc 945f 9f3c 32f0 383c
00000100: a897 de3c 73a1 e2bc 8d49 5fbd 05b9 ef3b
00000110: d4a6 dc3b 2b89 913c e2a0 2bbd 4d93 7a3c
00000120: 1918 973c 1791 043d ea1a 623d 803e 02bd
00000130: 977c 00bc 9c8c 83bd c9d7 2f3d 7eb2 b4bc
00000140: cb4d c63c a5d7 773c d85a 13bc dbe5 ab3d
00000150: e1cc f53b 78dc 91ba 36f9 f73c e61a 373d
00000160: 7d59 b43c 399d f83c 4d84 5c3c f622 8b3c
00000170: 2cfb 713b 9428 983c 4fc5 ec3c a885 0f3a
00000180: c678 42bc 0dc9 debb 9fcb 6a3c 0492 0bbc
00000190: 4b47 92bd 7740 39bd db9f 5b3a 8361 543c
000001a0: b66d c73c 433c 753c 868d 07bd 58d5 b8bb
000001b0: 897c 973c 9437 b0bb 4e29 f73c ff3c 3a3d
000001c0: e1a6 68bd 5bc4 4d3c ff53 2a3c 442c 693c
000001d0: 2499 b6ba 2b82 273c 86f9 a8bd f235 bebc
000001e0: 6b96 293d a6c5 94bb 1500 d2bd 5616 36bb
000001f0: d5e1 223d 780b 203d 9c2a ddbc 37ab 843d
00000200: 99f8 8c3d f4cc ca3b 3c76 5dbd d438 123c
00000210: d3ad 4f3d a1bc d0bc 2620 7f3c 8024 bfbc
00000220: a2ce 11bc ce49 ba3c 8b70 983b a467 75bc
00000230: 1519 a23c 9545 4abd c587 de3c e7a0 aabc
00000240: 4d2b edbc 1499 193c 2323 323d b71a a8ba
00000250: 9983 77bb 060c 13bb cd0b cdbc 07c8 473d
00000260: 1158 57bc 5f6f 1bbc afba 95bd e310 16bc
00000270: 009c a93c 0087 5b3c b57b 33bc 2543 f13b
00000280: 6d40 98bb 6b0d c43c 65e5 89bd dc97 763c
00000290: 74a1 21bd e92e e83b 31ad b23b b871 3bbc
000002a0: bb42 0d3d a6d7 083d def9 573d 415d 58bc
000002b0: dc97 a239 0497 a8bc 7303 86bb d83d 573d
000002c0: e1b1 e1b9 f456 2f3c 3ba2 28bd 30b9 5fbd
000002d0: 7730 de3b 2ab5 c6bb b9f3 193b 0a2a a43c
000002e0: 114d 873c 033a 613d 4ea0 44bc 04e8 55bc
000002f0: b78a 953b 33bf b83c 726b 76bc 008f 303d
00000300: 9d96 1f3d 5790 17bc 6e8d 043d 0b87 2cbc
00000310: d7a5 2dbd f55a 2ebc 07b1 82bc 0567 0f3c
00000320: 1763 213c 59ce 11bc 1a28 d0ba a6fc dabb
00000330: a8fa 213d 6f17 253c a567 44bd a34d 0d3b
00000340: 92b7 073d 94fd 17bb 632b 0cbd 2713 3c3d
00000350: da22 8bbc 4c90 0bbd 7389 803c 0766 edbc
00000360: 1c35 8cbc 1bd8 18ba 147e 8fbc a9b6 c93c
00000370: 0341 56bc 2b77 4cbd fdc2 c03c 4d99 5b3c
00000380: 5adc 683d 1327 e43c 4240 4939 71ff 433d
00000390: 7a6f d2bc 3e7b 95ba be7c f63c 9c7e 733a
000003a0: 5f7e e33b f267 84bb 9745 95bc fb1c 3d3d
000003b0: 6b9b 573b d084 04bd 1ec6 f13c 8d6c 62bd
000003c0: 494a f63b 7c60 87bc b798 0b3d fd4c 6fbc
000003d0: ce21 3c3d 8d01 b03c fc86 403d 909b bd3b
000003e0: 81fe e13b c2ef f03b 685e 0ebc ad36 62bd
000003f0: a054 ccbc 05f9 253c 9cbb 273c 8344 38bd
-0.048332132 -0.08646002 0.046540197 -0.05450259 -0.011800197 -0.010324914 0.020388104 0.013182312
0.018587347 0.005657542 -0.0006610803 -0.0030043132 0.014499722 -0.028014822 -0.027198114 0.026076851
0.0044735326 -0.0038309155 -0.0063538034 0.011694493 0.011632818 0.027264195 0.016674956 -0.005415073
0.0008449434 0.026600432 -0.009207537 0.04624519 -0.04243773 -0.015589873 0.020260038 -0.090351604
-0.06454013 0.009529877 0.034920067 0.032769915 0.026000505 -0.019924816 0.011871226 0.020823546
-0.026458066 -0.04136603 -0.012370499 -0.023195628 -0.086602576 0.059188258 0.077635124 0.017254503
0.02612661 -0.03528335 0.032870043 -0.018072868 -0.03139583 0.017211432 0.0108738905 0.01078675
0.012506095 0.0024271251 0.0051397765 -0.0028466866 -0.04026096 -0.02641028 0.019454755 0.011287736
0.027171925 -0.027664876 -0.054513503 0.007315757 0.0067337546 0.017765602 -0.041901477 0.015293908
0.018444108 0.03236493 0.05520145 -0.031797886 -0.0078422045 -0.064233035 0.042930398 -0.022057768
0.024207016 0.015127097 -0.008993827 0.08393451 0.00750123 -0.0011128327 0.0302702 0.044703387
0.022015328 0.030348407 0.013459277 0.016984444 0.0036923392 0.018574037 0.028902678 0.00054749334
-0.011869615 -0.0067988695 0.014330774 -0.0085187 -0.07142504 -0.045227494 0.00083780073 0.012962702
0.024344306 0.014967981 -0.03309395 -0.005640667 0.018492 -0.005377719 0.030171063 0.045468327
-0.056799773 0.012559022 0.010396003 0.014231745 -0.0013931138 0.010223906 -0.08250718 -0.023219083
0.041403215 -0.004540163 -0.10253922 -0.002778431 0.03976615 0.039073437 -0.026997857 0.06477969
0.06883354 0.006188983 -0.054067835 0.008924682 0.05070288 -0.02548057 0.01557163 -0.023332834
-0.008899363 0.022740271 0.004652088 -0.014978323 0.01978735 -0.049382765 0.02716435 -0.020828677
-0.028951311 0.009374876 0.04349054 -0.0012825344 -0.0037767647 -0.0022437586 -0.025030041 0.048774745
-0.013143555 -0.009487002 -0.07310998 -0.0091593 0.02070427 0.013398886 -0.010954787 0.0073627406
-0.004646352 0.02393218 -0.06733207 0.0150508545 -0.039460614 0.0070856703 0.005452775 -0.011440687
0.034487467 0.033408783 0.052728526 -0.013205827 0.00031012192 -0.020579822 -0.0040897666 0.052549213
-0.00043047874 0.010701884 -0.04117034 -0.054619968 0.00678068 -0.006064077 0.0023491217 0.020039577
0.01651624 0.054986965 -0.01200111 -0.013055805 0.0045636552 0.022552108 -0.015040265 0.043105125
0.038961995 -0.009250722 0.03236144 -0.010530244 -0.042394485 -0.010641803 -0.015953554 0.008752589
0.009850285 -0.008899295 -0.0015881092 -0.00668295 0.039545685 0.010076388 -0.047950406 0.0021561168
0.03313405 -0.0023191916 -0.034221064 0.045916703 -0.016984392 -0.03407316 0.01569054 -0.028979314
-0.017115168 -0.0005830542 -0.017516173 0.024623232 -0.013077023 -0.049918335 0.023530478 0.013403249
0.05685077 0.027850663 0.00019192792 0.04785103 -0.025687922 -0.0011404527 0.030088779 0.00092885806
0.006942555 -0.0040407116 -0.01822166 0.046170216 0.0032899033 -0.032353222 0.029513415 -0.055279303
0.0075161797 -0.0165255 0.034081187 -0.014605758 0.045930676 0.021485114 0.04700373 0.0057863668
0.0068967943 0.0073528 -0.0086895 -0.055227924 -0.024942696 0.010130172 0.010237601 -0.044987213

net.net.2.0.bias f4 [256]
00000000: 1f9c acbd caf0 3dbe bea8 24be 0933 6abd
00000010: ee2e e8bc 013a 0abe 1163 e1bd 3ac2 0ebe
00000020: a8f1 c4bd 367e 7fbd 35be 2bbe 9267 4fbd
00000030: 0dce 78bd db48 e4bc b59c 44bd 8967 b9bd
00000040: 5f1c 06be c354 78bd 16e5 dfbd aa8b 8ebd
00000050: 9538 9ebd 0bd8 13bd 8717 f1bd 4921 38be
00000060: 322e c9bc 6a8a a7bd 75dd 62bd a3a6 9abd
00000070: 3f46 aabc c651 a0be ed11 9bbd e5b5 cebd
00000080: c781 62bd 3b8c 98bd 4fb9 30bd 3a24 0c3c
00000090: 3b3a 92bb 3872 d2bd c584 81bd 8f41 e5bd
000000a0: e4e8 b0bd 4545 4ebd f9f5 63bd d869 f7bd
000000b0: d9d2 19bd c395 b3bd 8461 92bd b3bc f5bd
000000c0: 3f1d f4bd aacd 5ebd 337c 31bd a042 93bd
000000d0: 4db5 0cbe 15b8 cbbd 08d2 98bd f7a2 9dbd
000000e0: e7a0 40be 46b3 12bd e0f7 22be e8a3 24be
000000f0: fb49 93bd 8658 cfbc 4394 67bd 259e d3bd
00000100: 68c0 9bbd 6975 0fbc ecbe d3bb 09d4 a9bd
00000110: 8b49 a0bd bedc abbc 0337 30be a3a0 54bd
00000120: efa0 27bb 2c70 1abd eb08 9abd 1f8b 95bc
00000130: 138e bebc b0eb b8bd 05fc f4bd f741 7ebd
00000140: 8cc3 29bd f15c 51bd 48bd ccbd eccf 72bd
00000150: 38c3 45bd 0e4e 62bd 03e4 efbc c9c5 da37
00000160: ee58 13bc bb8f 13bd a233 13bb 05ab 47bd
00000170: bd26 be3c c989 99bd 75ec 3ebd 96b3 84bd
00000180: fca3 88bd 4a84 9abd ebd3 a8bc 2d62 01bd
00000190: 499d cfbd b791 35bd 2fe3 dfbc 6666 12be
000001a0: b5a7 9bbd 8f7c 7ebe 54b3 e2bd cd06 8bbd
000001b0: a383 12bd b771 51bd a070 0fbe 400a 31be
000001c0: 8197 9abc 2078 5cbd 1181 63bc 5214 42be
000001d0: 03f1 20be c5d5 b7be d0b4 943a c158 bbbc
000001e0: 8a6f 08be 66ba b8bd a2bb 17be c522 803b
000001f0: 3926 143c 41b9 8cbd cdca 7fbd f16e a23c
00000200: 6aa2 48bd 4a8e 92bd 7116 bcbc 1507 08be
00000210: 877f 04be 1404 03be 1c10 10bd 4940 dfbd
00000220: 9d53 90bd 33be abbd 00b0 c1bd f858 29bd
00000230: a6c9 b1bc d307 ddbd aaea c2bc 5efa de3a
00000240: ceb4 0d3c 5014 a0bd 476d c4bd 5064 96bd
00000250: 8c3d 27be 5cda 50bc deb2 febd 6ac5 8ebd
00000260: 8774 a3bc e509 ecbd 1325 15be 1cff a93c
00000270: 759b 1abe f429 f5bd 02ec 98bd 4d67 dd3a
00000280: fac4 e6bd 6f86 dbbc 0fb0 9fbe e919 13be
00000290: 4c31 d2bd b230 8cbc e87c 54bd 7627 04bd
000002a0: ae0b 07be 7269 a3bd 423d 3dbe b601 3fbd
000002b0: 9426 d5bd a9c3 b9bd f088 11be fb38 01be
000002c0: f962 8cbc de61 bcbd a6bd 36be a010 3fbc
000002d0: a85d 35bc a62e 95bd 22aa b3bc be17 8bbd
000002e0: 4f58 43bc 479e 2cbe bf03 e2bd 9884 a2bd
000002f0: 303f 05be 3217 3fbd a8bd 7ebd f94c c1bd
00000300: 32bb 28be 7f74 3fbe eed0 35be 57be 9dbe
00000310: c24e 0cbe e753 9fbd fdf4 0dbd 935e 2fbe
00000320: b435 c6be a6bd 26be 790b 89be c2dd acbd
00000330: 1598 cdbd d83b 1dbe 23bf 74bd b7ac 50bd
00000340: 35d6 fcbc 51bc d2be 68f2 40be 7e33 ccbc
00000350: 45fb 36bd 206d 53bd e336 36bd 2b02 5cbd
00000360: 5b47 84bc 2b43 d8bc c5d1 80bd bf32 4bbd
00000370: 03bc b3bc 9ddc 193b 8b4b 62bb c62b b9bc
00000380: 22d9 30be 8b69 fbb9 29de 11bd f269 d4bc
00000390: 1905 673c 5bb2 e7bd d8d2 d8bd 3069 9abd
000003a0: 339a c2bd ac11 fabd 72ab 01bc 80d4 f0bd
000003b0: 81ef 4abe edbb 2ebe a425 2bbe 5b53 4abd
000003c0: 8a66 14be 7cbd f6bd c57c c6bb ff11 1fbe
000003d0: 49ab 1fbe 1af2 dfbd f5e6 6ebd b7b2 f4bb
000003e0: 02f2 43be ec04 9bbd 189d 1abd 7caf 56bd
000003f0: 9144 85bc a0e4 d3bd ec83 35bd daa7 76bc
-0.08428215 -0.18548885 -0.16079995 -0.057177577 -0.02834269 -0.13498689 -0.110052235 -0.13941279
-0.09616405 -0.062376224 -0.16771777 -0.05063588 -0.06074338 -0.027866771 -0.04800101 -0.09052951
-0.1309676 -0.06062771 -0.109323665 -0.069602326 -0.07725636 -0.036094707 -0.117720656 -0.17981447
-0.02455816 -0.08180697 -0.05538698 -0.07551315 -0.02078545 -0.31312388 -0.075717784 -0.100932874
-0.055299547 -0.07448622 -0.043145474 0.008553559 -0.004462508 -0.10275692 -0.06324152 -0.11194145
-0.0863817 -0.05035903 -0.0556545 -0.12080735 -0.037554596 -0.08768799 -0.07147506 -0.11998882
-0.11919641 -0.054395355 -0.043331336 -0.07190442 -0.13741036 -0.0994722 -0.07461935 -0.07697099
-0.1881138 -0.0358155 -0.1591487 -0.1607815 -0.07191845 -0.025310766 -0.056537878 -0.10332898
-0.07605058 -0.00875602 -0.0064619686 -0.082923956 -0.07826527 -0.020979282 -0.17208485 -0.051911008
-0.0025578102 -0.03770463 -0.07521232 -0.018254815 -0.023261106 -0.09029329 -0.119621314 -0.062074628
-0.041446254 -0.051114026 -0.0999704 -0.05928032 -0.04828188 -0.05525022 -0.02928353 2.6079726e-05
-0.00899337 -0.036025744 -0.0022461195 -0.04874708 0.023211831 -0.074969836 -0.04661222 -0.06479566
-0.066719025 -0.075447634 -0.020608863 -0.03158777 -0.10137422 -0.044328418 -0.02733001 -0.14296874
-0.07600347 -0.24852203 -0.110693604 -0.067884065 -0.03577007 -0.051133838 -0.14007807 -0.17289066
-0.01887107 -0.053825498 -0.013885752 -0.18953064 -0.15716939 -0.3590528 0.001134539 -0.02286947
-0.13323799 -0.09019928 -0.1481767 0.003910395 0.009042316 -0.06871272 -0.062449265 0.019828292
-0.048983015 -0.07156046 -0.02295992 -0.13283952 -0.12939273 -0.12794524 -0.035171613 -0.10900933
-0.07047198 -0.08385887 -0.094573975 -0.041344613 -0.021702599 -0.10792508 -0.023793537 0.0017011871
0.008649064 -0.07816374 -0.095911555 -0.07343352 -0.16332072 -0.012747373 -0.1243646 -0.069712475
-0.019953026 -0.11525325 -0.14564924 0.020751528 -0.15098365 -0.119708925 -0.0746689 0.0016891748
-0.11268039 -0.026797501 -0.3118901 -0.14365353 -0.10263309 -0.017113063 -0.051876932 -0.032264195
-0.13188049 -0.079790965 -0.18480399 -0.04663249 -0.10407749 -0.09070522 -0.14212394 -0.12619393
-0.017137038 -0.09198354 -0.17845783 -0.011661679 -0.011069693 -0.07284288 -0.021931712 -0.06791638
-0.01192291 -0.16857253 -0.11035871 -0.079354465 -0.13012385 -0.04665298 -0.06219259 -0.094385095
-0.1647766 -0.18696783 -0.17755482 -0.3080928 -0.13701919 -0.07779675 -0.034657467 -0.17125921
-0.38712847 -0.16283283 -0.26766565 -0.084407344 -0.10038773 -0.1535486 -0.059752595 -0.050945964
-0.03086386 -0.411593 -0.1884247 -0.024926897 -0.044673223 -0.05161774 -0.044485938 -0.053713005
-0.016147306 -0.026399216 -0.0629001 -0.049608942 -0.021940237 0.0023477443 -0.003452989 -0.02260388
-0.1727033 -0.00047953086 -0.03561226 -0.025929425 0.0141003365 -0.113133155 -0.1058709 -0.07539594
-0.095020674 -0.12210402 -0.007914411 -0.11759281 -0.19817926 -0.17063875 -0.16713578 -0.0493959
-0.1449224 -0.1204786 -0.006057354 -0.15534209 -0.15592684 -0.10934849 -0.058325727 -0.0074675935
-0.19135287 -0.07569298 -0.037747473 -0.05241345 -0.016268047 -0.10346341 -0.044315264 -0.015054667

net.net.3.0.weight f4 [256, 256]
00000000: 3456 ad3d 5c1a 383a 61b0 5ebb d38d 7e3e
00000010: ebe8 2f3e ab5c f93d ac8d 1f3d ac69 2f3b
00000020: a62a e43d 3a95 5abf 04a8 0cbc eb7d 4f3c
00000030: d9e7 ea3d e1d4 c3bd 23ae 323d 8485 363e
00000040: 3132 8c3d 0f4c 87ba 0797 a83e bc83 613d
00000050: 4062 7a3d 703d f8be dd54 ab39 cc02 093d
00000060: ab8a 523d 1460 a3bf dc38 d43e 37cf 293e
00000070: 094b 083f 8651 a7bc 6c81 d23c a80c 043f
00000080: 45ff 9dbc d007 a73c f8bd f33e b8f9 c43c
00000090: 1852 683f 9196 603e 3dff 133e 6dc9 3a3e
000000a0: 59c6 cb3e f4e5 093f faae af3e dc0f 5bbc
000000b0: 8549 aabc 33d0 84be 805f 543e 5468 dabb
000000c0: 6c34 fdbd 6913 0f3e d1e0 673f af11 1e3f
000000d0: bd3c d03c 6543 efbb 4166 1b3f 4f5c 003f
000000e0: c157 243c 2aa8 0ebf bd16 20bd 7704 fe3d
000000f0: 0e77 303d 6155 983d 3d95 98bc d289 b53b
00000100: 25b0 823c 473f ccbf bafc 343f 1889 83bf
00000110: 44fb d23b dcdf 5d3d ed57 b93d 49c8 fc3b
00000120: 3761 083f 4026 163f 15ea 4f3e 503b b33d
00000130: f8a0 09bc 3a47 9d3e 1778 50bf 1866 9bbc
00000140: 34f9 d1ba dc14 0fbc dcb4 363f 9c63 113f
00000150: 2b41 f93d d157 e9bf 2f61 7f3f 5582 43bf
00000160: d9a8 393e 441b 033f 25bc 223d 473d 47be
00000170: 1521 5e3c a909 e03a 7902 ba3e db61 7d3d
00000180: 7267 87bd ca94 5f3f 6f6b a53e 4d98 b7bf
00000190: b38e 5d3c bd4d a7bf d269 083e 43e2 b13d
000001a0: 09ec 283f f9e2 bd3b 92c1 d93e 518c 713c
000001b0: ce87 0a3f 9932 133d 294c 853d 2cb6 f23d
000001c0: 4ac3 db3e 9952 833d a77f 6f3d 43ac 883e
000001d0: 7b8a 493d 3b71 ef3d 0187 323e 6fdc 5fbe
000001e0: 388d b83e 1f02 7e3e 9a4a 1dbd 639e ef3c
000001f0: 60ec 6dbc 59cc be3e bb01 0e3c 5474 d33e
00000200: d30a 0b3f 1ae3 1f3e 6a95 8ebc ec93 9b3e
00000210: 5a18 21bc e28d ac3e 559b 6cbf c231 2ebd
00000220: 3815 4abf 890f 593e abbc df3e 2558 363d
00000230: eaef 993b 96af c63e c18c f13e 406d ce3e
00000240: 58ec 213e e7a9 b23c 37ab 173d 167b 9ebe
00000250: 7314 69bb 8753 c83e 1e8d a1bb a315 2f3f
00000260: 3682 c13e 43ef c53b 5a0a f43d cca4 d43e
00000270: 8f3d 093e aa7e 29bf 1f60 d33e f073 973e
00000280: 2226 9c3c 2c47 243e 2262 173f 5f45 0bbf
00000290: cbd2 02bd c3b7 2bbe 0b9b ccba 81cc bc3e
000002a0: a883 0bbd 2982 563f ff3c 843c cdfd 8f3c
000002b0: c95c 8c3c 32cb 793f e481 3a3e cbcd 9abf
000002c0: 1f0f d43c 4bca a63d 2a8a d33e cf85 2b3e
000002d0: 4a47 833e bfdc 123e ea4c 4a3e 6a87 e03c
000002e0: c78b 563d ed08 a33d 2720 5abf 9e2d 16bc
000002f0: 56a2 683b 9f74 503e 5755 a33f 5ad1 2ebf
00000300: 34a9 063d 9288 9e3d d2cb cabe 33cb f0be
00000310: 8480 4f3d 02b3 4b3d c659 f83e 36b6 9a3f
00000320: c785 71bf 4fca 183c 1e70 cbbb 43a7 3f3d
00000330: 0571 a93d 5d47 5d3e 0725 ccbd c855 89ba
00000340: dfbc 24bf f09b bc3d 8e4a c13e 5c90 333f
00000350: 4c57 233d b46b 18be c2c8 79be de93 e93e
00000360: 72da f03c d905 e23e 84bb 89bf 0109 19bc
00000370: 63b6 82bf 9e20 173e 3fc7 7ebb d9f2 3bbf
00000380: c931 85bb 43de b7bb d33c e5be c546 253e
00000390: 19ec 323e 4cb5 b5bd 5605 9e3d 8a89 a33c
000003a0: a363 923d 3217 073d 3118 bf3e 62ef 263e
000003b0: 7895 a23c c0a0 863d 0bd6 ef3c 15da 78bf
000003c0: e881 e2be aad5 183c 0037 763d 1943 853d
000003d0: 9c4c ecbb d345 1d3d 7624 9bbf 32c1 67bc
000003e0: d38e 02bd 8839 aa3e c781 8d3e f72f 52ba
000003f0: b45e ef3d 2c3a a13c 8615 363d d8f1 41bf
0.084637076 0.0007022971 -0.0033979642 0.24858789 0.17178695 0.12175878 0.03895347 0.0026765866
0.11140947 -0.8538395 -0.00858498 0.0126642985 0.11470003 -0.09562088 0.0436231 0.1782437
0.06845511 -0.001032235 0.32927725 0.055057272 0.061128855 -0.48484373 0.0003267889 0.033449933
0.051401775 -1.2763696 0.4144963 0.16582952 0.53239495 -0.020424616 0.025696479 0.5158181
-0.019286761 0.020389467 0.47605872 0.024044856 0.90750265 0.21932437 0.14452834 0.182409
0.39799765 0.53866506 0.34313184 -0.01337048 -0.02078701 -0.25940093 0.20739555 -0.006665269
-0.12363514 0.13972248 0.9057742 0.61745733 0.025419587 -0.007301735 0.607029 0.5014085
0.010030688 -0.5572535 -0.039084185 0.12403195 0.04308229 0.0743816 -0.01862585 0.005540111
0.015953133 -1.5956811 0.7069813 -1.0276213 0.0064386446 0.054168567 0.09049974 0.0077143055
0.5327334 0.58652115 0.20304139 0.08751547 -0.008400194 0.30718404 -0.8143324 -0.01896958
-0.0016019703 -0.008733001 0.7136972 0.56792617 0.12170633 -1.8229924 0.99757665 -0.76370746
0.18130817 0.5121348 0.03973021 -0.19456969 0.013557692 0.0017092723 0.3633001 0.0618609
-0.066115275 0.8733641 0.32308528 -1.4343354 0.013522792 -1.3070599 0.13321617 0.08685734
0.6598516 0.0057948795 0.42530495 0.014742927 0.5411347 0.035936926 0.06508667 0.11851153
0.4292243 0.06412239 0.058471348 0.26693925 0.04920433 0.11691519 0.17434312 -0.21861432
0.3604524 0.24805497 -0.038401224 0.02925033 -0.014521688 0.3726528 0.008667405 0.4129969
0.5431339 0.15613976 -0.01740523 0.30386293 -0.009832466 0.33701998 -0.9242452 -0.04252792
-0.7893863 0.21197332 0.4369863 0.044517655 0.0046977894 0.38805836 0.471777 0.40317726
0.15812814 0.021809531 0.037028518 -0.30953282 -0.0035565167 0.39126226 -0.0049301526 0.6839239
0.37794656 0.006040485 0.11916037 0.4153198 0.13402389 -0.662089 0.41284272 0.2958064
0.019061152 0.16042775 0.59134114 -0.54402727 -0.03193931 -0.16769318 -0.0015610171 0.36874774
-0.034061104 0.8379236 0.016142366 0.017577076 0.017134087 0.97575676 0.18213612 -1.2094053
0.025886117 0.08144053 0.41316348 0.16750263 0.25640327 0.1434202 0.19755903 0.02740832
0.052379396 0.07960687 -0.8520531 -0.009166149 0.003549715 0.20356987 1.2760419 -0.68288195
0.03287621 0.077408925 -0.39608628 -0.4703003 0.05065967 0.049731262 0.48505992 1.2086856
-0.94344753 0.009325578 -0.006208434 0.046790373 0.0827351 0.21609254 -0.09968 -0.0010477835
-0.64350694 0.0920943 0.37752193 0.7014215 0.039878175 -0.14884835 -0.2439299 0.45620626
0.029401038 0.44145086 -1.076035 -0.009340526 -1.021191 0.14758536 -0.0038876084 -0.7341743
-0.0040647727 -0.0056112125 -0.44772968 0.16140278 0.17472877 -0.0887247 0.077158615 0.019963045
0.071479104 0.032981105 0.37323144 0.16302255 0.019846663 0.065736294 0.029276868 -0.97207767
-0.44239736 0.009328285 0.060111046 0.065069385 -0.007211281 0.038396668 -1.2120502 -0.014145182
-0.03187449 0.33247018 0.27638075 -0.00080180116 0.11687985 0.019681059 0.04445412 -0.7575965
